…
Output Flatten: (None, 512)
Output CNN: (None, 2048)
Output CNN: (None, 1024)
Model: "model"
__________________________________________________________________________________________________
Layer (type)                    Output Shape         Param #     Connected to                     
==================================================================================================
input_1 (InputLayer)            [(None, 84, 324, 1)] 0                                            
__________________________________________________________________________________________________
conv2d (Conv2D)                 (None, 1, 320, 32)   13472       input_1[0][0]                    
__________________________________________________________________________________________________
max_pooling2d (MaxPooling2D)    (None, 1, 64, 32)    0           conv2d[0][0]                     
__________________________________________________________________________________________________
dropout (Dropout)               (None, 1, 64, 32)    0           max_pooling2d[0][0]              
__________________________________________________________________________________________________
conv2d_1 (Conv2D)               (None, 1, 60, 64)    10304       dropout[0][0]                    
__________________________________________________________________________________________________
max_pooling2d_1 (MaxPooling2D)  (None, 1, 12, 64)    0           conv2d_1[0][0]                   
__________________________________________________________________________________________________
dropout_1 (Dropout)             (None, 1, 12, 64)    0           max_pooling2d_1[0][0]            
__________________________________________________________________________________________________
conv2d_2 (Conv2D)               (None, 1, 8, 128)    41088       dropout_1[0][0]                  
__________________________________________________________________________________________________
max_pooling2d_2 (MaxPooling2D)  (None, 1, 8, 128)    0           conv2d_2[0][0]                   
__________________________________________________________________________________________________
dropout_2 (Dropout)             (None, 1, 8, 128)    0           max_pooling2d_2[0][0]            
__________________________________________________________________________________________________
conv2d_3 (Conv2D)               (None, 1, 4, 128)    82048       dropout_2[0][0]                  
__________________________________________________________________________________________________
max_pooling2d_3 (MaxPooling2D)  (None, 1, 4, 128)    0           conv2d_3[0][0]                   
__________________________________________________________________________________________________
input_2 (InputLayer)            [(None, 100)]        0                                            
__________________________________________________________________________________________________
dropout_3 (Dropout)             (None, 1, 4, 128)    0           max_pooling2d_3[0][0]            
__________________________________________________________________________________________________
dense_1 (Dense)                 (None, 1024)         103424      input_2[0][0]                    
__________________________________________________________________________________________________
flatten (Flatten)               (None, 512)          0           dropout_3[0][0]                  
__________________________________________________________________________________________________
dense_2 (Dense)                 (None, 2048)         2099200     dense_1[0][0]                    
__________________________________________________________________________________________________
dense (Dense)                   (None, 1024)         525312      flatten[0][0]                    
__________________________________________________________________________________________________
dropout_4 (Dropout)             (None, 2048)         0           dense_2[0][0]                    
__________________________________________________________________________________________________
concatenate (Concatenate)       (None, 3072)         0           dense[0][0]                      
                                                                 dropout_4[0][0]                  
__________________________________________________________________________________________________
dense_3 (Dense)                 (None, 1024)         3146752     concatenate[0][0]                
__________________________________________________________________________________________________
lambda (Lambda)                 (None, 1024)         0           dense_3[0][0]                    
==================================================================================================
Total params: 6,021,600
Trainable params: 6,021,600
Non-trainable params: 0
__________________________________________________________________________________________________
None
Epoch 1/10
  1/109 [..............................] - ETA: 2:45 - loss: -0.
…
